…
        features: ['prompt', 'response', 'input_ids', 'attention_mask', 'labels'],
        num_rows: 2800
    })
})
You are attempting to use Flash Attention 2.0 with a model not initialized on GPU. Make sure to move the model to GPU after initializing it on CPU with `model.to('cuda')`.
Loading checkpoint shards:   0%|          | 0/4 [00:00<?, ?it/s]Loading checkpoint shards:  25%|██▌       | 1/4 [00:00<00:00,  7.77it/s]Loading checkpoint shards:  75%|███████▌  | 3/4 [00:00<00:00,  9.48it/s]Loading checkpoint shards: 100%|██████████| 4/4 [00:00<00:00,  9.64it/s]
model loaded LlamaMeteorForCausalLM(
  (model): LlamaMeteorModel(
    (embed_tokens): Embedding(128256, 4096)
    (layers): ModuleList(
      (0-31): 32 x LlamaMeteorDecoderLayer(
        (self_attn): LlamaMeteorFlashAttention2(
          (q_proj): Linear(in_features=4096, out_features=4096, bias=False)
          (k_proj): Linear(in_features=4096, out_features=1024, bias=False)
          (v_proj): Linear(in_features=4096, out_features=1024, bias=False)
          (o_proj): Linear(in_features=4096, out_features=4096, bias=False)
          (rotary_emb): LlamaMeteorRotaryEmbedding()
        )
        (mlp): LlamaMeteorMLP(
          (gate_proj): Linear(in_features=4096, out_features=14336, bias=False)
          (up_proj): Linear(in_features=4096, out_features=14336, bias=False)
          (down_proj): Linear(in_features=14336, out_features=4096, bias=False)
          (act_fn): SiLU()
        )
        (input_layernorm): LlamaMeteorRMSNorm()
        (post_attention_layernorm): LlamaMeteorRMSNorm()
      )
    )
    (norm): LlamaMeteorRMSNorm()
  )
  (lm_head): Linear(in_features=4096, out_features=128256, bias=False)
)
load adapters from {'lora1': '/data0/ljy/workspace/LLaMA-Factory/ckpt/llama3_8b_fuze27_no_sys/formal_fallacies_syllogisms_negation_no_sys', 'lora2': '/data0/ljy/workspace/LLaMA-Factory/ckpt/llama3_8b_fuze27_no_sys/language_identification_no_sys', 'lora3': '/data0/ljy/workspace/LLaMA-Factory/ckpt/llama3_8b_fuze27_no_sys/play_dialog_same_or_differ
…
                  (lora19): Dropout(p=0.1, inplace=False)
                  (lora20): Dropout(p=0.1, inplace=False)
                  (lora21): Dropout(p=0.1, inplace=False)
                  (lora22): Dropout(p=0.1, inplace=False)
                  (lora23): Dropout(p=0.1, inplace=False)
                  (lora24): Dropout(p=0.1, inplace=False)
                  (lora25): Dropout(p=0.1, inplace=False)
                  (lora26): Dropout(p=0.1, inplace=False)
                  (lora27): Dropout(p=0.1, inplace=False)
                  (lora28): Dropout(p=0.1, inplace=False)
                )
                (lora_A): Linear(in_features=14336, out_features=224, bias=False)
                (lora_B): Linear(in_features=224, out_features=4096, bias=False)
                (lora_embedding_A): ParameterDict()
                (lora_embedding_B): ParameterDict()
              )
              (act_fn): SiLU()
            )
            (input_layernorm): LlamaMeteorRMSNorm()
            (post_attention_layernorm): LlamaMeteorRMSNorm()
          )
        )
        (norm): LlamaMeteorRMSNorm()
      )
      (lm_head): Linear(in_features=4096, out_features=128256, bias=False)
    )
  )
)
adapter model loaded PeftModelForCausalLM(
  (base_model): LoraModel(
    (model): LlamaMeteorForCausalLM(
      (model): LlamaMeteorModel(
        (embed_tokens): Embedding(128256, 4096)
        (layers): ModuleList(
          (0-31): 32 x LlamaMeteorDecoderLayer(
            (self_attn): LlamaMeteorFlashAttention2(
              (q_proj): lora.MoELinear(
                (base_layer): Linear(in_features=4096, out_features=4096, bias=False)
                (moe_gate): Linear(in_features=4096, out_features=28, bias=False)
                (lora_dropout): ModuleDict(
                  (lora1): Dropout(p=0.1, inplace=False)
                  (lora2): Dropout(p=0.1, inplace=False)
                  (lora3): Dropout(p=0.1, inplace=False)
                  (lora4): Dropout(p=0.1, inplace=False)
                  (lora5): Dropout(p=0.1, inplace=False)
                  (lora6): Dropout(p=0.1, inplace=False)
…
